ML/lstm_model.tflite (tflite, 103436 bytes, 7 tensors)

sequential_68/dense_68/MatMul f4 [1, 100]
0	0x3e34513f	0.17609118
1	0xbdd54fdb	-0.10415622
2	0x3e112b36	0.1417664
3	0x3e89ed94	0.2693907
4	0x3dac1a5a	0.08403464
5	0xbe28e02a	-0.16491762
6	0x3e81cb91	0.2535062
7	0x3dab16e8	0.083539784
8	0x3dfec9dd	0.12440846
9	0xbe5b567f	-0.21419714
10	0xbd142668	-0.03616944
11	0x3e70a7a0	0.23501444
12	0x3d3595b0	0.044332206
13	0xbd80d487	-0.062905364
14	0xbd93a639	-0.07209439
15	0x3e167954	0.1469472
16	0xbdac3ec7	-0.08410411
17	0x3ddbc96c	0.107317775
18	0xbe006379	-0.12537946
19	0x3e509f63	0.20373301
20	0xbe40afe9	-0.18817104
21	0x3e032b11	0.12809397
22	0xbe751c5c	-0.239366
23	0x3e56c9e4	0.20975453
24	0xbe00ab50	-0.1256535
25	0xbe0718d0	-0.13193059
26	0x3cfe8500	0.031069279
27	0x3e838267	0.25685427
28	0xbe111504	-0.14168173
29	0xbdd0ee9c	-0.10201761
30	0xbb986ea0	-0.0046518594
31	0xbd675718	-0.056479543
32	0x3d7a8772	0.061164327
33	0x3dfd0c8c	0.12355909
34	0x3e810211	0.2519689
35	0xbdd017ca	-0.101607874
36	0x3e1878a2	0.14889768
37	0x3e6193ba	0.2202901
38	0xbe3a1b78	-0.18174541
39	0xbd09648c	-0.033543155
40	0xbdfc5774	-0.12321368
41	0x3d0e239e	0.034701936
42	0x3e844bb5	0.2583901
43	0x3e832e5b	0.25621304
44	0x3dd09ed1	0.10186542
45	0x3e197196	0.14984736
46	0x3e33e68a	0.17568412
47	0xbe3c5f14	-0.18395644
48	0x3cb8418e	0.022492196
49	0x3e5372d6	0.20649275
50	0xbe01b80f	-0.12667869
51	0xbe09d2d7	-0.13459335
52	0xbdd21ffa	-0.10260005
53	0x3de554dd	0.11197827
54	0xbdc2515a	-0.09488173
55	0xbe1590c6	-0.14606008
56	0x3d60af50	0.05485469
57	0xbdfbfd2e	-0.123041496
58	0xbe023aa8	-0.12717688
59	0x3e61ad2f	0.2203872
60	0xbe0ef970	-0.1396234
61	0xbdd76895	-0.10517994
62	0x3e140e94	0.14458686
63	0x3e553c5f	0.20823811
64	0xbe1922e5	-0.14954717
65	0xbdf637ab	-0.120223366
66	0x3bfca263	0.0077097877
67	0xbe1f6324	-0.15565163
68	0xbe2223ef	-0.1583402
69	0x3d379667	0.04482117
70	0x3d277b27	0.04088893
71	0x3dfa6428	0.122261345
72	0xbe67c53c	-0.22633833
73	0xbe6a151e	-0.22859618
74	0xbe66a0c0	-0.22522259
75	0x3cb2bfe0	0.021820009
76	0x3e3babda	0.18327275
77	0xbcbf167f	-0.023326157
78	0x3d126798	0.035743326
79	0xbe2328d9	-0.15933551
80	0x3deacab9	0.114644475
81	0x3e6226e6	0.22085151
82	0x3d0e39a0	0.034722924
83	0x3e6409ad	0.22269316
84	0xbe6e9306	-0.23298272
85	0xbb047273	-0.0020209819
86	0xbe55d992	-0.20883778
87	0xbe203fdf	-0.15649365
88	0x3ac51300	0.001503557
89	0x3d8288f4	0.06373778
90	0xbe307851	-0.17233397
91	0xbe59379d	-0.21212621
92	0x3dd062bb	0.10175081
93	0xbcd61d90	-0.026137143
94	0x3e25c664	0.16188961
95	0xbd90e0c8	-0.070741236
96	0x3d3ed080	0.04658556
97	0x3dfea02d	0.12432895
98	0x3e06c718	0.13161886
99	0xbd06ea78	-0.03293845

sequential_68/bidirectional_68/backward_lstm_68/while/lstm_cell/BiasAdd/ReadVariableOp f4 [200]
0	0xbcc3f488	-0.023920313
1	0x00000000	0.0
2	0x00000000	0.0
3	0x3ce0c1e4	0.027436204
4	0xbcaa936f	-0.020822255
5	0x00000000	0.0
6	0x00000000	0.0
7	0x00000000	0.0
8	0x00000000	0.0
9	0x3ce4b7a1	0.027919592
10	0xbbe4e90c	-0.006985789
11	0xbc9cd069	-0.019142346
12	0x00000000	0.0
13	0x3c0048e7	0.007829881
14	0xbb7158c8	-0.00368266
15	0xbc98ec01	-0.018667223
16	0xbc70558c	-0.014668833
17	0x00000000	0.0
18	0xbcc111f3	-0.02356813
19	0xb6d05a4f	-6.2093964e-06
20	0x3ce3d9ce	0.027813818
21	0x00000000	0.0
22	0xbc3f8b37	-0.011690906
23	0x00000000	0.0
24	0xbc96a342	-0.018388394
25	0xbc469cf8	-0.012122385
26	0x00000000	0.0
27	0xbcbf84e6	-0.0233788
28	0x00000000	0.0
29	0xbc8fbfb8	-0.017547473
30	0x3ce589af	0.028019754
31	0x00000000	0.0
32	0x00000000	0.0
33	0x3cea8061	0.028625669
34	0x00000000	0.0
35	0xb9c3288f	-0.00037223517
36	0xbab11021	-0.0013508835
37	0x00000000	0.0
38	0x00000000	0.0
39	0x3cd6b33d	0.026208514
40	0xbc6a9503	-0.014317754
41	0xbcbb249e	-0.022844609
42	0x3ce3a2b2	0.02778754
43	0x00000000	0.0
44	0x00000000	0.0
45	0xbc37b0aa	-0.011211554
46	0x00000000	0.0
47	0x3ce58eea	0.028022248
48	0x00000000	0.0
49	0xbc2c356f	-0.010510786
50	0x3f79f030	0.9763212
51	0x3f800000	1.0
52	0x3f800000	1.0
53	0x3f837643	1.0270466
54	0x3f7a88e9	0.9786516
55	0x3f800000	1.0
56	0x3f800000	1.0
57	0x3f800000	1.0
58	0x3f800000	1.0
59	0x3f837d22	1.0272563
60	0x3f7e26b5	0.9927781
61	0x3f7afcf4	0.98042226
62	0x3f800000	1.0
63	0x3f80e45d	1.0069691
64	0x3f7f3e53	0.99704474
65	0x3f7ae0ab	0.97999066
66	0x3f7c0e2b	0.9845912
67	0x3f800000	1.0
68	0x3f79f894	0.97644925
69	0x3f7fff9e	0.99999416
70	0x3f838e48	1.0277796
71	0x3f800000	1.0
72	0x3f7ca834	0.9869416
73	0x3f800000	1.0
74	0x3f7b3377	0.98125404
75	0x3f7cef90	0.98803043
76	0x3f800000	1.0
77	0x3f7a29a8	0.9771981
78	0x3f800000	1.0
79	0x3f7b8195	0.982446
80	0x3f838bd8	1.0277052
81	0x3f800000	1.0
82	0x3f800000	1.0
83	0x3f839027	1.0278367
84	0x3f800000	1.0
85	0x3f7ffd09	0.99995476
86	0x3f7f2e9f	0.99680513
87	0x3f800000	1.0
88	0x3f800000	1.0
89	0x3f834d7d	1.0258023
90	0x3f7c45b1	0.9854384
91	0x3f7a37a7	0.9774117
92	0x3f835eda	1.0263321
93	0x3f800000	1.0
94	0x3f800000	1.0
95	0x3f7d5304	0.98954797
96	0x3f800000	1.0
97	0x3f837a0e	1.0271623
98	0x3f800000	1.0
99	0x3f7d3f76	0.9892496
100	0xbcdf9430	-0.027292341
101	0x00000000	0.0
102	0x00000000	0.0
103	0x3cd97caa	0.026548702
104	0xbcd083c8	-0.025453463
105	0x00000000	0.0
106	0x00000000	0.0
107	0x00000000	0.0
108	0x00000000	0.0
109	0x3ce2c899	0.027683543
110	0xbc0c7ff6	-0.00857543
111	0xbcc2e582	-0.023791078
112	0x00000000	0.0
113	0x3c91dc49	0.017805235
114	0xbbc4c412	-0.0060048187
115	0xbcb50a12	-0.022099528
116	0xbc683a99	-0.014174127
117	0x00000000	0.0
118	0xbce0eeaa	-0.027457554
119	0xbb30068f	-0.0026859378
120	0x3cf15734	0.029460527
121	0x00000000	0.0
122	0xbc618314	-0.013764162
123	0x00000000	0.0
124	0xbcbdae28	-0.023154333
125	0xbc4888f2	-0.012239682
126	0x00000000	0.0
127	0xbcc333c5	-0.023828397
128	0x00000000	0.0
129	0xbcb7d2e9	-0.022439437
130	0x3ce8e459	0.028429197
131	0x00000000	0.0
132	0x00000000	0.0
133	0x3ce33ea8	0.027739838
134	0x00000000	0.0
135	0xbc886e4e	-0.01665416
136	0x3bc9b63b	0.006155757
137	0x00000000	0.0
138	0x00000000	0.0
139	0x3cd4e250	0.02598682
140	0xbc90bcfb	-0.017668238
141	0xbcca154c	-0.024668358
142	0x3cd3aabe	0.025838252
143	0x00000000	0.0
144	0x00000000	0.0
145	0xbc5d785b	-0.0135174645
146	0x00000000	0.0
147	0x3ce14a76	0.027501326
148	0x00000000	0.0
149	0xbc5398c9	-0.012914845
150	0xbcc3d81a	-0.023906756
151	0x00000000	0.0
152	0x00000000	0.0
153	0x3cdfbdc9	0.027312176
154	0xbcaaada7	-0.020834757
155	0x00000000	0.0
156	0x00000000	0.0
157	0x00000000	0.0
158	0x00000000	0.0
159	0x3ce45480	0.027872324
160	0xbbe5134e	-0.0069908267
161	0xbc9cbd14	-0.019133128
162	0x00000000	0.0
163	0x3c0454ae	0.00807683
164	0xbb6d9405	-0.0036251557
165	0xbc98f2c6	-0.01867045
166	0xbc6ff0ac	-0.014644783
167	0x00000000	0.0
168	0xbcc09ac2	-0.023511294
169	0xb6d549bd	-6.356479e-06
170	0x3ce3f0ce	0.027824786
171	0x00000000	0.0
172	0xbc3fb9bb	-0.011701996
173	0x00000000	0.0
174	0xbc96b016	-0.018394511
175	0xbc467d41	-0.012114824
176	0x00000000	0.0
177	0xbcc00031	-0.023437591
178	0x00000000	0.0
179	0xbc8fbe80	-0.017546892
180	0x3ce51d39	0.027968036
181	0x00000000	0.0
182	0x00000000	0.0
183	0x3ceb1ae0	0.028699338
184	0x00000000	0.0
185	0xb9ca4df1	-0.00038586513
186	0xbad1dea3	-0.0016011785
187	0x00000000	0.0
188	0x00000000	0.0
189	0x3cd70d3f	0.026251433
190	0xbc6a7fc0	-0.014312685
191	0xbcbb4948	-0.022862092
192	0x3ce52778	0.027972922
193	0x00000000	0.0
194	0x00000000	0.0
195	0xbc37a20b	-0.011208068
196	0x00000000	0.0
197	0x3ce4e49c	0.02794104
198	0x00000000	0.0
199	0xbc2c35fe	-0.01051092

sequential_68/bidirectional_68/backward_lstm_68/while/lstm_cell/MatMul_11 f4 [200, 50]
0	0xbde8ead3	-0.11372914
1	0xbdea4edc	-0.114408225
2	0xbd601469	-0.054706965
3	0xbe285f74	-0.16442662
4	0xbc84cdf0	-0.01621148
5	0x3dae0994	0.08497921
6	0x3d263a2f	0.040582832
7	0xbdcc37f0	-0.09971607
8	0xbe1fd81c	-0.15609783
9	0xbe51f503	-0.20503621
10	0x3df06634	0.11738244
11	0x3bc2d6c3	0.0059460117
12	0xbd0b23c8	-0.03396967
13	0x3d11750c	0.035512015
14	0xbd8708af	-0.06593453
15	0xbd0171c8	-0.03160265
16	0xbdc0053b	-0.09375998
17	0xbd90661c	-0.07050726
18	0xbe2c7654	-0.16842014
19	0x3da72fe7	0.081634335
20	0xbceefe35	-0.02917395
21	0x3e165c62	0.14683679
22	0x3cc60149	0.024170535
23	0xbbc9f172	-0.0061628157
24	0xba9b4a1b	-0.0011847647
25	0xbcf6b6a2	-0.030116383
26	0x3cd18d75	0.025580147
27	0xbd465a0b	-0.048425715
28	0xbd0cd708	-0.034384757
29	0x3ca4f964	0.02013845
30	0x3d004bc5	0.03132226
31	0xbb7547e8	-0.0037426893
32	0xbcc47043	-0.023979312
33	0xbd2d2d17	-0.04227933
34	0xbc9f9b70	-0.019483298
35	0xbb198037	-0.002342237
36	0xbe16976b	-0.14706199
37	0xbd9abf2f	-0.075559966
38	0xbdce73c9	-0.10080678
39	0x3ac0077b	0.0014650667
40	0xbd6048ab	-0.0547568
41	0xbcb07d95	-0.021544257
42	0xbd50abc9	-0.050945077
43	0x3b29db40	0.0025918037
44	0x3d01f70a	0.031729735
45	0xbc35bf8a	-0.01109303
46	0x3d934520	0.07190919
47	0xbd8aa1d2	-0.06769146
48	0xbdedb335	-0.11606447
49	0x3d3411df	0.043962356
50	0x3d118b6a	0.035533346
51	0x3b84e200	0.0040552616
52	0xbcfddbb7	-0.030988557
53	0x3c1630fb	0.009166951
54	0xbde15211	-0.11001981
55	0x3e0748b0	0.13211322
56	0x3d0c4791	0.03424794
57	0xbd1084f7	-0.035283055
58	0x3dba6e90	0.091031194
59	0x3d1c06fd	0.038092602
60	0x3dccd93b	0.10002371
61	0xbd9971ad	-0.07492385
62	0x3dcee959	0.10103101
63	0xbe114469	-0.14186253
64	0xbc97a1c7	-0.018509759
65	0x3d29720d	0.041368533
66	0xbd49c741	-0.04926229
67	0x3cd8ba94	0.026456155
68	0xbe227108	-0.1586343
69	0x3dcceb6e	0.10005842
70	0x3d16c904	0.036812797
71	0x3d66398e	0.056207232
72	0xbd4c7177	-0.049912896
73	0x3c95c631	0.018282982
74	0x3d73ad3e	0.05949139
75	0xbd78d1bc	-0.060746893
76	0xbd5fc14e	-0.05462771
77	0x3d211e9b	0.03933583
78	0x3d8e1938	0.06938404
79	0x3d91ef89	0.07125766
80	0xbd2fc965	-0.042916674
81	0x3ccdf3fa	0.025140751
82	0xbd4da69d	-0.050207723
83	0xbc44a5fe	-0.012002466
84	0x3c0f5b94	0.008749861
85	0xbbe3e95b	-0.0069553084
86	0x3dfd68f1	0.123735316
87	0xbd69f6e4	-0.05712022
88	0x3e2104ca	0.15724483
89	0x3db115e0	0.086467505
90	0x3b2ae5ed	0.0026076988
91	0x3ce07085	0.027397403
92	0x3da3cb2f	0.079977386
93	0xbe140e73	-0.14458637
94	0x3c929d37	0.017897232
95	0x3d10b852	0.03533203
96	0x3cebd2a7	0.02878697
97	0x3d8a4a5d	0.06752465
98	0xbd751d6a	-0.059842505
99	0xbd0a4f5b	-0.033767086
100	0xbd362548	-0.044469148
101	0xbd80a552	-0.06281532
102	0xbc005680	-0.007833123
103	0xbdf9a6ec	-0.12190041
104	0x3c0dbf16	0.0086515155
105	0xbdedd5a8	-0.11613017
106	0x3db410ec	0.0879229
107	0xbcd64ab4	-0.026158668
108	0xbc8b4d1c	-0.017004542
109	0x3d46249c	0.048374757
110	0xbba167f7	-0.0049257237
111	0x3d77d0af	0.06050175
112	0x3d977c9b	0.073968135
113	0xbd6edf78	-0.058318585
114	0x3d9a1ba5	0.07524804
115	0x3ae97fe6	0.0017814606
116	0xbcdb4226	-0.02676494
117	0x3dc8ee5a	0.09811087
118	0xbd22c9b5	-0.039743144
119	0xbdd501b5	-0.10400716
120	0xbdbd4fb7	-0.0924372
121	0x3d5900d4	0.052979305
122	0x3a85629c	0.0010176483
123	0x3d11310a	0.035447158
124	0x3d60d49e	0.054890268
125	0xbd198fca	-0.037490644
126	0xbd64bd14	-0.05584438
127	0x3bdecd97	0.0067994106
128	0x3e0d5115	0.13800462
129	0xbde26ead	-0.11056266
130	0x3e0c4800	0.13699341
131	0xbd112dc7	-0.035444047
132	0xbd98be17	-0.07458132
133	0x3d8609e0	0.06544852
134	0xbd90df91	-0.07073892
135	0xbd4099ae	-0.04702156
136	0x3ced8d10	0.028997928
137	0x3c80a790	0.0157049
138	0xbd6b11f5	-0.057390172
139	0xbd0c4e02	-0.03425408
140	0x3d75b0ce	0.059983067
141	0x3bfa2c10	0.007634647
142	0x3c9af1a4	0.018914051
143	0xbca65aae	-0.020306911
144	0x3e42acec	0.19011277
145	0x3d2891e7	0.04115477
146	0x3b3295d8	0.0027249958
147	0x3dc14cd1	0.0943848
148	0x3ce5d779	0.028056847
149	0xbce7af01	-0.02828169
150	0x3d65bb69	0.05608693
151	0xbcd1b826	-0.025600504
152	0xbcd57a64	-0.026059337
153	0xbdc62d60	-0.09676623
154	0x3dce1a71	0.10063637
155	0x3bdc5f40	0.006725222
156	0xbd7c94ee	-0.061665468
157	0xbe11755e	-0.14204928
158	0x3c0f546f	0.008748158
159	0xbd1f1f48	-0.03884819
160	0xbca9bc3c	-0.02071964
161	0x3d7594b7	0.05995628
162	0xbc7b4763	-0.015336844
163	0x3c1c6924	0.009546552
164	0x3ce9b24c	0.028527401
165	0xbe0b6cfd	-0.13615794
166	0xbc88df38	-0.016708001
167	0x3d44b7fa	0.048027016
168	0x3dd2b9b3	0.102893256
169	0xbd1641c1	-0.0366838
170	0x3d83c76d	0.06434522
171	0x3cf94c5a	0.030431915
172	0x3e0d19a4	0.13779312
173	0xbd0c6149	-0.034272466
174	0x3d6b37c0	0.057426214
175	0x3c871da2	0.016493622
176	0xbd20fc2f	-0.039303
177	0xbe2c1180	-0.1680355
178	0xbd46498b	-0.04840998
179	0x3e206b3e	0.1566591
180	0x3dee4575	0.116343416
181	0x3a88ae3a	0.00104279
182	0xbe030331	-0.12794186
183	0x3e59629a	0.2122902
184	0x3dbd4411	0.09241498
185	0xbd4e3a81	-0.050348762
186	0xbc4f97c3	-0.01267046
187	0x3d0df834	0.034660533
188	0x3cd937fa	0.02651595
189	0x3e72bbcf	0.23704456
190	0xbb28f066	-0.0025778054
191	0xbc35f776	-0.011106363
192	0x3d29ef8e	0.041488223
193	0x3cfbb286	0.030724775
194	0xbd8e5404	-0.069496185
195	0xbd5e3830	-0.054252803
196	0x3c79654b	0.015221904
197	0x3d012a7d	0.03153466
198	0x3e1c33f2	0.1525419
199	0xbd8a3e82	-0.06750204
200	0xbcc665d7	-0.024218483
201	0xbba44f10	-0.005014308
202	0xbd7677de	-0.060172908
203	0xbd63f69c	-0.055655107
204	0x3dac71c5	0.08420137
205	0x3e0613e0	0.13093519
206	0x3d9988ed	0.0749682
207	0xbd3ffc35	-0.046871383
208	0x3db2a599	0.087229915
209	0xbdb15869	-0.08659441
210	0xbd6e5883	-0.05818988
211	0x3db18995	0.0866882
212	0x3d0f767c	0.035025105
213	0x3cdc0787	0.026859058
214	0xbcf0329a	-0.029321004
215	0xbc5322ee	-0.012886746
216	0xbd02f8e7	-0.031975653
217	0xbdaad1e0	-0.08340812
218	0x3db06d07	0.08614545
219	0xbd079fe5	-0.03311147
220	0x3d90110f	0.07034504
221	0x3ad543e0	0.0016270839
222	0x3d9c4f34	0.07632294
223	0x3c65cd4c	0.014025997
224	0xbd5c418a	-0.05377344
225	0xbd83a5ca	-0.06428106
226	0x3dddde09	0.108333655
227	0xbd4e9e81	-0.05044413
228	0xbd93edfc	-0.07223126
229	0xbd4020d5	-0.04690631
230	0xbcd9cd71	-0.02658722
231	0x3cfa01df	0.03051847
232	0x3c92348e	0.017847326
233	0xbd1019b7	-0.035180774
234	0x3d36337d	0.044482697
235	0xbd7ba7b2	-0.061439224
236	0x3d9c4103	0.076295875
237	0xbccceb3b	-0.02501451
238	0xbd0056b2	-0.03133268
239	0xbcaafbb0	-0.020871967
240	0xbca9edf2	-0.020743344
241	0xbc2c585f	-0.010519116
242	0x3dbbf1e4	0.09176996
243	0x3e21a97c	0.1578731
244	0x3d486468	0.04892388
245	0x3e131a65	0.14365537
246	0x3ca6797f	0.020321606
247	0xbd97d632	-0.074139014
248	0xbdc64c5a	-0.09682532
249	0xbd8947f5	-0.06703178
250	0x3c846ff3	0.016166663
251	0xbd000e92	-0.031263895
252	0x3ca1a601	0.019732477
253	0x3e04f04e	0.12982294
254	0x3d29bb00	0.041438103
255	0xbd4008a0	-0.046883225

sequential_68/bidirectional_68/backward_lstm_68/while/lstm_cell/MatMul f4 [200, 1]
0	0x3b788821	0.0037922936
1	0x3e0c3e94	0.13695747
2	0xbdc268e3	-0.09492662
3	0xbd5f5bf4	-0.054531053
4	0x3dd1cff9	0.10244746
5	0xbabe2a00	-0.0014508367
6	0x3d41f470	0.047352254
7	0xbcd17940	-0.025570512
8	0xbe0da563	-0.13832621
9	0x3dd5ce55	0.10439745
10	0x3d5eb1fa	0.05436895
11	0xbda81b57	-0.0820834
12	0x3c103ff0	0.008804306
13	0xbc289751	-0.010289983
14	0xbd6070fb	-0.054795247
15	0xbcd2819e	-0.025696572
16	0x3d572911	0.0525294
17	0x3c7cc570	0.015427932
18	0x3da42a1a	0.08015843
19	0x3de409f3	0.1113471
20	0x3d875d43	0.06609585
21	0xbe257022	-0.16156057
22	0x3da13e94	0.07873264
23	0x3e3098a8	0.17245734
24	0xbcbd4aa6	-0.023106884
25	0x3d3bf57d	0.045888413
26	0xbe068ae4	-0.1313892
27	0x3db40d66	0.08791618
28	0xbc15e510	-0.009148851
29	0x3ca52d0a	0.020163078
30	0xbd627313	-0.055285525
31	0x3e0dcac0	0.13846874
32	0xbdfa0094	-0.122071415
33	0x3dced63c	0.10099456
34	0xbabdee80	-0.0014490634
35	0x3ce7923a	0.028267968
36	0x3de5a94e	0.11213933
37	0xbdc0c833	-0.09413185
38	0xbd5789de	-0.052621715
39	0x3d368ef9	0.044569943
40	0xbe02b885	-0.12765701
41	0xbe371725	-0.17879923
42	0x3e14c1b5	0.14527018
43	0x3e26eb68	0.16300738
44	0xbd7bf106	-0.061509155
45	0x3e00462c	0.12526768
46	0xbcc1e498	-0.023668572
47	0x3e390c78	0.18071163
48	0x3e1f1b28	0.15537703
49	0xbb7f340b	-0.0038940932
50	0x3ce04478	0.027376398
51	0x3e1a76c2	0.15084365
52	0xbda475b0	-0.080302596
53	0x3dd8ed87	0.1059218
54	0x3db92740	0.090406895
55	0x3e0ac924	0.13553292
56	0xbd341578	-0.043965787
57	0xbdcc1e26	-0.09966688
58	0x3e032488	0.12806904
59	0x3de132cc	0.10996017
60	0x3c217fb4	0.009857107
61	0x3d58356c	0.052785322
62	0x3dc07184	0.093966514
63	0xbdc67e62	-0.09692074
64	0x3d1e8697	0.038702574
65	0xbbeb9544	-0.0071894247
66	0x3d3edb24	0.046595708
67	0xbbea0c80	-0.0071426034
68	0x3db0a1d8	0.08624619
69	0xbe1b7e32	-0.15184858
70	0x3e2f8c7d	0.17143436
71	0xbd39c2ec	-0.045351908
72	0xbd2223b0	-0.039584816
73	0xbda2cbd2	-0.07949032
74	0x3e04d91f	0.1297345
75	0x3e2255ba	0.15853015
76	0xbc9a1f20	-0.01881367
77	0xbd8bf244	-0.06833318
78	0xbd7f266e	-0.06229251
79	0x3e051f38	0.1300019
80	0xbe0395af	-0.12850069
81	0xbe0cd3f4	-0.13752729
82	0xbe277720	-0.16354036
83	0xbe0593cf	-0.13044666
84	0xbdec09b8	-0.11525291
85	0xbe03e606	-0.12880716
86	0x3dad18cc	0.08451995
87	0xbde03775	-0.109480776
88	0x3decd300	0.115636826
89	0xbdb90cf3	-0.09035673
90	0x3dffa269	0.12482149
91	0x3dc244d4	0.09485784
92	0x3bf249c7	0.007394049
93	0xbe1d1f85	-0.15344055
94	0xbd8b3687	-0.0679751
95	0xbcb8ac2e	-0.02254304
96	0x3e12175e	0.14266726
97	0x3e29f742	0.16598228
98	0x3e0f4484	0.1399098
99	0xbe284402	-0.16432193
100	0x3de8bb3a	0.11363836
101	0xbe0b3e79	-0.1359805
102	0xbd70996e	-0.058740072
103	0x3db54f90	0.08853066
104	0x3db7bf22	0.089720026
105	0xbd24c8f0	-0.04023069
106	0xbdbfd008	-0.09365851
107	0xbdd39ec4	-0.103330165
108	0xbe0c48c6	-0.13699636
109	0x3e460088	0.1933614
110	0x3b89f5b9	0.0042102006
111	0x3d913b55	0.07091395
112	0xbe2d1f9b	-0.16906588
113	0xb9a661a9	-0.0003173475
114	0xbcc3339f	-0.023828326
115	0x3df4e44a	0.11957605
116	0x3dd59f39	0.1043076
117	0xbdee2183	-0.116274856
118	0x3de333eb	0.11093887
119	0xbd632624	-0.055456296
120	0x3da01e47	0.07818275
121	0xbe0909b5	-0.13382609
122	0x3cf6a13e	0.030106183
123	0xbe2e22eb	-0.17005508
124	0x3d3940cd	0.045227814
125	0x3ddbb90d	0.10728655
126	0xbe2944ea	-0.16530195
127	0x3dd7ae9e	0.105313525
128	0xbdd5cca7	-0.10439425
129	0x3ca7e12b	0.02049311
130	0x3dbf83f2	0.093513384
131	0xbd9e55a8	-0.077311814
132	0xbdf78d96	-0.12087552
133	0x3dda6ffd	0.10665891
134	0xbe18ee6c	-0.149347
135	0xbd8e15b8	-0.06937736
136	0xbb578cf8	-0.003289042
137	0xbe12a10a	-0.14319244
138	0xbe185050	-0.14874387
139	0x3e12066c	0.14260262
140	0x3c84c388	0.016206518
141	0x3db22bfc	0.086997956
142	0x3e44f652	0.19234589
143	0xbe1142ea	-0.14185682
144	0xbdaf3729	-0.08555443
145	0xbd1f4469	-0.0388836
146	0xbd48a836	-0.048988543
147	0x3d616e02	0.055036552
148	0xbe0d9613	-0.1382678
149	0x3ca0d069	0.019630628
150	0x3e13c154	0.14429218
151	0x3e0c8658	0.13723123
152	0xbb16a540	-0.002298668
153	0x3e361ce6	0.17784461
154	0xbc64c9c4	-0.01396412
155	0x3e1e2f02	0.1544762
156	0x3c3d4b40	0.0115535855
157	0x3de76d9c	0.11300203
158	0x3e095342	0.13410667
159	0x3df9fa24	0.12205914
160	0xbd0c86ff	-0.03430843
161	0xbe3a8abf	-0.1821699
162	0xbc8c19e8	-0.017102197
163	0xbded6804	-0.11592105
164	0x3e2575f4	0.16158277
165	0xbdc423bf	-0.095771305
166	0x3ca12e72	0.019675467
167	0x3dfc8eb4	0.12331906
168	0x3dbb1d4a	0.09136446
169	0xbb64609c	-0.0034847623
170	0xbd972cb7	-0.073815756
171	0x3e27932e	0.16364738
172	0xbe0c71a1	-0.13715221
173	0xbd289ba8	-0.04116407
174	0xbd783f2b	-0.060607117
175	0xbe326e3c	-0.17424864
176	0x3d96085e	0.07325815
177	0xbdeba823	-0.11506679
178	0x3e179258	0.1480192
179	0xbd6c34ff	-0.05766773
180	0x3d870c67	0.065941624
181	0x3ddb640c	0.10712442
182	0x3dda5300	0.10660362
183	0xbdd634d6	-0.104592964
184	0x3b084500	0.002079308
185	0xbdee2ab8	-0.11629242
186	0xbddb3803	-0.10704043
187	0xbd87c74d	-0.066298105
188	0x3c7fd1b0	0.015613958
189	0xbdbaa6e4	-0.09113863
190	0x3dd1fede	0.1025369
191	0xbdc87df1	-0.097896464
192	0xbce32111	-0.027725728
193	0x3df94808	0.12171942
194	0x3d2001ec	0.039064333
195	0x3c8fe538	0.017565355
196	0x3d94a120	0.07257295
197	0x3df48784	0.1193991
198	0x3d667d30	0.05627173
199	0x3d06a894	0.032875612

sequential_68/bidirectional_68/forward_lstm_68/while/lstm_cell/BiasAdd/ReadVariableOp f4 [200]
0	0xb998c7df	-0.00029140615
1	0xbb62ac31	-0.0034587497
2	0x00000000	0.0
3	0x3cce0467	0.025148584
4	0xba514a10	-0.00079837535
5	0xbc02bd41	-0.007979692
6	0x3cd65c2e	0.026167002
7	0x00000000	0.0
8	0xbc8a622d	-0.016892517
9	0x00000000	0.0
10	0x3cba5370	0.022744864
11	0x3cd22974	0.025654532
12	0x00000000	0.0
13	0xbc99701e	-0.01873022
14	0xbcbfccb6	-0.023413043
15	0x3cd033b3	0.025415277
16	0xbc8092eb	-0.015695056
17	0x00000000	0.0
18	0xbc5b545d	-0.013386813
19	0x3cd070d8	0.025444433
20	0xbca7dadc	-0.020490102
21	0x3c75d477	0.015004269
22	0x00000000	0.0
23	0x00000000	0.0
24	0x00000000	0.0
25	0xbc0beeea	-0.008540848
26	0x00000000	0.0
27	0x3cd114f2	0.025522683
28	0xbc362666	-0.011117553
29	0x00000000	0.0
30	0x00000000	0.0
31	0xbc83f024	-0.016105719
32	0x3cba5387	0.022744907
33	0x00000000	0.0
34	0x3cd2b46c	0.025720797
35	0x00000000	0.0
36	0x00000000	0.0
37	0x00000000	0.0
38	0xbcb32283	-0.021867042
39	0x00000000	0.0
40	0x00000000	0.0
41	0xbbbba9b3	-0.005727017
42	0x3cd48733	0.025943374
43	0x3cc41f26	0.023940634
44	0x3cac80c0	0.021057487
45	0x00000000	0.0
46	0x3cccf00f	0.025016813
47	0xbcae3e74	-0.021270014
48	0x3c215cb0	0.009848759
49	0x3cd33278	0.025780901
50	0x3f7ffc63	0.99994487
51	0x3f7fcc28	0.9992089
52	0x3f800000	1.0
53	0x3f835149	1.0259181
54	0x3f80a1da	1.0049393
55	0x3f7e04a3	0.99225825
56	0x3f83635f	1.0264701
57	0x3f800000	1.0
58	0x3f7ba2c5	0.9829524
59	0x3f800000	1.0
60	0x3f830ad3	1.0237678
61	0x3f83553f	1.026039
62	0x3f800000	1.0
63	0x3f7b4fdc	0.9816873
64	0x3f7a16b2	0.9769088
65	0x3f834f27	1.025853
66	0x3f7b9cab	0.9828593
67	0x3f800000	1.0
68	0x3f7b9c08	0.9828496
69	0x3f835604	1.0260625
70	0x3f7abb56	0.979421
71	0x3f828c5f	1.0199088
72	0x3f800000	1.0
73	0x3f800000	1.0
74	0x3f800000	1.0
75	0x3f7dd567	0.9915375
76	0x3f800000	1.0
77	0x3f835951	1.0261632
78	0x3f7d4b3a	0.9894291
79	0x3f800000	1.0
80	0x3f800000	1.0
81	0x3f7befa0	0.98412514
82	0x3f830e6f	1.023878
83	0x3f800000	1.0
84	0x3f836170	1.026411
85	0x3f800000	1.0
86	0x3f800000	1.0
87	0x3f800000	1.0
88	0x3f7a534f	0.9778337
89	0x3f800000	1.0
90	0x3f800000	1.0
91	0x3f7e5d95	0.99361545
92	0x3f836420	1.0264931
93	0x3f832f99	1.0248901
94	0x3f82edf7	1.0228871
95	0x3f800000	1.0
96	0x3f834d29	1.0257922
97	0x3f7a931e	0.97880733
98	0x3f8147d6	1.0100048
99	0x3f8358f3	1.026152
100	0xbbc4634c	-0.0059932824
101	0xbbc4be5a	-0.006004137
102	0x00000000	0.0
103	0x3cdf0ee3	0.027228778
104	0x3c1c1af1	0.009527908
105	0xbc207b8d	-0.009795082
106	0x3cdbd6ae	0.026835766
107	0x00000000	0.0
108	0xbc5ebe41	-0.013595165
109	0x00000000	0.0
110	0x3cd52cc6	0.026022326
111	0x3cd8c9ab	0.02646335
112	0x00000000	0.0
113	0xbcc0027d	-0.023438687
114	0xbccf6a7c	-0.02531933
115	0x3cdf06c3	0.027224904
116	0xbc9badfc	-0.01900386
117	0x00000000	0.0
118	0xbc7e72be	-0.015530286
119	0x3cdbe4d7	0.026842518
120	0xbcd098a4	-0.02546341
121	0x3cd57965	0.026058862
122	0x00000000	0.0
123	0x00000000	0.0
124	0x00000000	0.0
125	0xbc32a0c7	-0.01090259
126	0x00000000	0.0
127	0x3cdc4c4c	0.02689185
128	0xbc596e33	-0.013270902
129	0x00000000	0.0
130	0x00000000	0.0
131	0xbc6c5c4f	-0.014426305
132	0x3cdd7005	0.027030954
133	0x00000000	0.0
134	0x3cdd2dc5	0.026999364
135	0x00000000	0.0
136	0x00000000	0.0
137	0x00000000	0.0
138	0xbcd12408	-0.025529876
139	0x00000000	0.0
140	0x00000000	0.0
141	0x3bff6912	0.007794508
142	0x3cddeb77	0.027089817
143	0x3cdcbba4	0.026944943
144	0x3ce38aca	0.02777614
145	0x00000000	0.0
146	0x3cd9af1e	0.02657276
147	0xbcd11d84	-0.02552677
148	0x3ca70193	0.020386493
149	0x3cdae902	0.026722435
150	0xb99d517d	-0.00030006087
151	0xbb620a4a	-0.0034490996
152	0x00000000	0.0
153	0x3ccd39f5	0.02505205
154	0xba48e6b7	-0.0007663774
155	0xbc02cc6d	-0.007983309
156	0x3cd5daff	0.026105402
157	0x00000000	0.0
158	0xbc8a5ded	-0.01689049
159	0x00000000	0.0
160	0x3cbb5634	0.022868253
161	0x3cd1d5ac	0.025614582
162	0x00000000	0.0
163	0xbc9990c4	-0.018745787
164	0xbcbfd60d	-0.023417497
165	0x3ccf2f6e	0.02529117
166	0xbc808fdd	-0.0156936
167	0x00000000	0.0
168	0xbc5a4909	-0.013323077
169	0x3cd047b6	0.02542482
170	0xbca78086	-0.020447027
171	0x3c77c575	0.015122761
172	0x00000000	0.0
173	0x00000000	0.0
174	0x00000000	0.0
175	0xbc0bf414	-0.0085420795
176	0x00000000	0.0
177	0x3cd0b96e	0.025479045
178	0xbc36292e	-0.011118216
179	0x00000000	0.0
180	0x00000000	0.0
181	0xbc84a23c	-0.01619064
182	0x3cba781a	0.022762347
183	0x00000000	0.0
184	0x3cd31868	0.025768474
185	0x00000000	0.0
186	0x00000000	0.0
187	0x00000000	0.0
188	0xbcb3cd26	-0.021948408
189	0x00000000	0.0
190	0x00000000	0.0
191	0xbbba1f10	-0.0056799725
192	0x3cd4b057	0.025962992
193	0x3cc36839	0.023853408
194	0x3cac552a	0.021036703
195	0x00000000	0.0
196	0x3ccbd2a6	0.024880718
197	0xbcae331c	-0.021264605
198	0x3c201b2c	0.009772103
199	0x3cd46f27	0.025931908

sequential_68/bidirectional_68/forward_lstm_68/while/lstm_cell/MatMul_11 f4 [200, 50]
0	0x3cac9680	0.021067858
1	0x3c2e5dac	0.01064245
2	0xbc64bbfc	-0.013960835
3	0xbbf06b28	-0.007336993
4	0x3dbb331c	0.09140608
5	0x3dc87688	0.09788233
6	0x3d36abcf	0.044597443
7	0x3db83999	0.08995361
8	0x3d8ad55d	0.06778977
9	0x3c74429c	0.014908459
10	0xbe0c5d5c	-0.13707489
11	0x3e04117a	0.12897292
12	0x3ca633ac	0.020288311
13	0xbcb0840e	-0.021547344
14	0x3df1da56	0.118092224
15	0xbbe6b278	-0.007040318
16	0x3c87cb85	0.016576538
17	0xbcc65b94	-0.02421359
18	0xbd588715	-0.0528632
19	0xbd350abb	-0.044199686
20	0xbd3d8130	-0.04626578
21	0xbd7cb7d8	-0.061698765
22	0x3c6c8ed0	0.014438346
23	0xbe44a9cd	-0.19205399
24	0x3d8874de	0.06662916
25	0xbd832cce	-0.0640503
26	0x3ccd5cf2	0.025068734
27	0x3ce2ad44	0.02767051
28	0x3dc6af5e	0.097014174
29	0xbe3bbab7	-0.18332945
30	0x3cf75b8f	0.030195026
31	0xbd8ad759	-0.067793556
32	0xbdce9edc	-0.10088894
33	0x3c9b1603	0.018931394
34	0xbd0acca4	-0.033886567
35	0xbd8276d2	-0.063703194
36	0x3e20628c	0.15662593
37	0xbace7db0	-0.001575401
38	0xbd8aabf4	-0.06771079
39	0xbb8e057e	-0.004334151
40	0xbd13f7e2	-0.03612507
41	0x3d4c2d9b	0.04984818
42	0xbda677cf	-0.081283204
43	0xbcd2e0b5	-0.025741914
44	0xbd31c46a	-0.043400206
45	0x3d206134	0.0391552
46	0x3d2ddb2a	0.04244534
47	0x3c3fb9bc	0.011701997
48	0xbde0bc60	-0.1097343
49	0xbbb08f24	-0.0053881574
50	0x3d123edc	0.03570448
51	0xbe01f9b7	-0.12692915
52	0x3db1ee66	0.08688049
53	0x3d169b87	0.036769416
54	0x3d015131	0.03157157
55	0xbc7bc444	-0.015366618
56	0xbd29f1a5	-0.041490216
57	0xbd5c80bc	-0.05383371
58	0x3cd06b56	0.025441807
59	0xbc909171	-0.017647477
60	0x3e2c1317	0.16804157
61	0xbbc27d0a	-0.005935316
62	0x3bd038b9	0.006354418
63	0x3d22a139	0.039704535
64	0x3db67e51	0.08910812
65	0xbdb0cf10	-0.08633244
66	0x3d55e28a	0.052217998
67	0x3d82d863	0.06388929
68	0xbbd74c34	-0.0065703634
69	0x3e07389b	0.13205187
70	0xbd08d24b	-0.033403676
71	0x3cf7f8be	0.030269977
72	0x3dc9990d	0.09843645
73	0xbdd7c235	-0.10535089
74	0x3e13d124	0.1443525
75	0x3959fb7a	0.00020788415
76	0xbd88df5e	-0.06683229
77	0xbdcf63ab	-0.10126432
78	0x3e20a4f1	0.1568792
79	0xbd53dd82	-0.05172492
80	0xbd9e9fac	-0.07745299
81	0x3b8c217e	0.0042764535
82	0x3d84012a	0.064455345
83	0xba4d942a	-0.00078422076
84	0x3e2639e5	0.16233023
85	0x3de02f90	0.10946572
86	0xbacea0b8	-0.0015764451
87	0xbd5c53aa	-0.053790726
88	0x3d8cb71e	0.06870864
89	0x3d73e453	0.05954392
90	0xbd3d9d69	-0.046292696
91	0xbd3ea19f	-0.046540853
92	0xbd9abb84	-0.07555297
93	0xbe02089c	-0.12698597
94	0xbd3d5fcd	-0.04623394
95	0xbd88ee55	-0.06686083
96	0x3b4bdfb5	0.0031108682
97	0xbbef239b	-0.0072979457
98	0x3e4cf80c	0.20016497
99	0xbc92b2c8	-0.017907515
100	0x3d0bd631	0.034139816
101	0x3d19119c	0.03737031
102	0x3cf931c0	0.03041923
103	0x3b622e38	0.0034512412
104	0x3acf38cc	0.0015809773
105	0xbd93b59d	-0.07212374
106	0x3c2e5844	0.010641161
107	0xbdc326a9	-0.09528858
108	0x3dab43ac	0.08362517
109	0xbd90f85c	-0.07078621
110	0x3ce409b0	0.02783665
111	0xbdf66d1f	-0.12032532
112	0xbdd427ec	-0.10359177
113	0x3d22bd17	0.03973111
114	0xbe2fa9ae	-0.17154571
115	0xbc38b68d	-0.011273992
116	0xbdd41d47	-0.10357147
117	0x3d4b83e8	0.049686342
118	0x3ce50801	0.027957918
119	0x3ca87ee6	0.020568322
120	0x3dd3e7cd	0.10346947
121	0x3d7a9604	0.061178222
122	0x3ce19dbe	0.027541038
123	0x3df38d29	0.118921585
124	0xbdcf2b19	-0.10115642
125	0xbc2bbeaf	-0.010482474
126	0xbd8bd279	-0.06827254
127	0xbd26ad5c	-0.040692672
128	0x3b2fc58c	0.0026820628
129	0xbdb2f816	-0.08738725
130	0xbd98a35d	-0.07453034
131	0xbdb8770d	-0.09007082
132	0xbdc9caf3	-0.098531626
133	0xbd8462b3	-0.06464138
134	0x3d327b26	0.043574475
135	0xbd846872	-0.06465234
136	0xbd94918a	-0.07254322
137	0xbd50713f	-0.05088925
138	0xbca83927	-0.020535065
139	0x3ceb6afa	0.028737534
140	0x3d6dd1b1	0.058061305
141	0x3c94a64e	0.018145707
142	0xbcc8731e	-0.024468955
143	0xbdcc23ec	-0.09967789
144	0x3d626d99	0.0552803
145	0x3d5b48ae	0.05353611
146	0x3c7701d2	0.015076118
147	0xbd2dad62	-0.04240168
148	0x3cc41e0a	0.023940105
149	0x3d37519d	0.044755567
150	0xbd5315aa	-0.051534332
151	0xbd9ed0af	-0.07754647
152	0xbe0d97eb	-0.13827483
153	0x3d1eb038	0.038742274
154	0xbd3d6c95	-0.04624613
155	0x3debb8a1	0.115098245
156	0x3ce225f8	0.027605996
157	0x3d422476	0.047398053
158	0x3b943c9c	0.0045238268
159	0x3d9ac815	0.07557694
160	0x3d2864a1	0.041111592
161	0x3dbe80f2	0.09301938
162	0xbd831c87	-0.064019255
163	0x3cf8a119	0.030350255
164	0x3d7544e6	0.05988016
165	0x3e18a2a1	0.14905788
166	0xbd7172a0	-0.058947206
167	0xbc840988	-0.016117826
168	0x3ca5c3e7	0.020235015
169	0xbd8fa272	-0.07013406
170	0x3c693597	0.014233968
171	0xbd460333	-0.048342895
172	0x3da5f065	0.08102492
173	0x38cf8400	9.895116e-05
174	0x3cd6ce6c	0.026221476
175	0xbd5bb934	-0.05364342
176	0xbcf7040a	-0.030153293
177	0x3d7bd854	0.061485603
178	0x3d938451	0.07202972
179	0x3d1db852	0.03850586
180	0xbdaee22f	-0.08539235
181	0xbd68860e	-0.05676847
182	0x3db63915	0.08897606
183	0x3d99fe18	0.07519168
184	0x3ce615ae	0.02808651
185	0x3d8d52e0	0.06900573
186	0x3bc73ed8	0.0060804896
187	0xbba5aec4	-0.005056234
188	0xbceb5e45	-0.028731475
189	0x3cbd3028	0.023094252
190	0x3e1bb3a7	0.1520525
191	0x3d3014df	0.042988654
192	0x3e00bc2f	0.12571786
193	0x3d0ede7a	0.03488014
194	0x3d462272	0.048372693
195	0x3ce749e8	0.028233483
196	0x3d3def18	0.046370596
197	0x3e19851c	0.14992183
198	0xbd3869e7	-0.04502287
199	0xbc2ef42f	-0.010678335
200	0xbd805797	-0.062667064
201	0xbb5dfe21	-0.0033873396
202	0x3cfc8dcd	0.030829335
203	0x3dfdc07f	0.12390231
204	0x3cf04bb3	0.029332971
205	0x3d28154e	0.041035943
206	0xbe248c8d	-0.16069241
207	0x3baa046f	0.005188517
208	0xbcfcb161	-0.0308463
209	0xbc03e4ef	-0.0080501875
210	0x3d676972	0.056497045
211	0xbcf7f4cb	-0.030268094
212	0x3cf0593c	0.029339425
213	0x3db99492	0.09061541
214	0x3d7762ea	0.060397066
215	0xbc95d9e6	-0.018292379
216	0xbdfd3967	-0.12364464
217	0x3c15328c	0.00910629
218	0x3d656f84	0.056014553
219	0x3e13023a	0.14356318
220	0xbce4a3c8	-0.027910128
221	0xbd6f6e2e	-0.058454685
222	0x3d512278	0.051058263
223	0xbd7f9409	-0.062397037
224	0x3c934d44	0.017981179
225	0x3d848f8c	0.06472692
226	0xbde78ee5	-0.11306552
227	0x3e0de4ac	0.13856763
228	0x3bb2ba58	0.005454343
229	0xbd4fa06d	-0.050690103
230	0xbcfa0f78	-0.030524954
231	0x3d99e2a2	0.0751393
232	0x3c372984	0.011179332
233	0xbd1a307d	-0.0376439
234	0xba6f0f5d	-0.0009119416
235	0x3bb3cdc4	0.0054871757
236	0x3d9fdb42	0.07805492
237	0x3ddee5c4	0.10883668
238	0x3dbece88	0.093167365
239	0x3e1b3d4c	0.15160102
240	0x3c744754	0.014909584
241	0xbc079deb	-0.008277397
242	0xbc1d8ba5	-0.009615813
243	0xbd88ad86	-0.06673722
244	0x3db803af	0.089850776
245	0x3de2851a	0.11060543
246	0xbd34b95e	-0.044122092
247	0x3cd7bd9f	0.026335536
248	0xbcd0fb38	-0.025510415
249	0x3c7ee793	0.015558141
250	0x3df39d3f	0.11895227
251	0xbc5a6916	-0.0133307185
252	0x3d86ad26	0.06575994
253	0xbce450ab	-0.027870497
254	0x3d7bd8b9	0.06148598
255	0xbe0ada45	-0.13559826

sequential_68/bidirectional_68/forward_lstm_68/while/lstm_cell/MatMul f4 [200, 1]
0	0x3d8fb798	0.070174396
1	0xbe2ab9c2	-0.16672423
2	0xbe01d2b4	-0.12678033
3	0x3e06024a	0.1308681
4	0x3dd6da6a	0.10490878
5	0x3d3cc1c3	0.046083223
6	0x3c764f35	0.015033533
7	0xbd066b40	-0.032817125
8	0xbd51d6c9	-0.051230226
9	0x3da1e2ec	0.0790461
10	0xbdf47459	-0.11936254
11	0x3e01310b	0.12616365
12	0xbe0e646b	-0.13905494
13	0x3dd3f0ac	0.10348639
14	0xbdcf0b1e	-0.10109542
15	0x3de81a08	0.1133309
16	0x3dfcfe9e	0.12353252
17	0xbd045de4	-0.032316104
18	0x3ccb5abc	0.024823539
19	0xbdc27f03	-0.09496882
20	0x3b191655	0.0023359258
21	0xbd8625be	-0.065501675
22	0x3cc5b190	0.02413252
23	0xbd421470	-0.047382772
24	0xbe2686fb	-0.16262428
25	0x3e0c5930	0.13705897
26	0x3e1acafc	0.15116495
27	0xbd0ca1e0	-0.034334064
28	0x3cb55a77	0.022137864
29	0x3c377ce0	0.011199206
30	0xbd884863	-0.06654432
31	0xbe1b8c92	-0.15190342
32	0x3d94e0c4	0.07269433
33	0x3d807c50	0.06273711
34	0x3dad2918	0.08455104
35	0xbdab8c3e	-0.083763584
36	0xbd8f0e84	-0.069851905
37	0x3ac01a80	0.0014656335
38	0x3d234015	0.039856035
39	0x3d55e3d4	0.052219227
40	0xbc4e5990	-0.012594596
41	0x3de5d01a	0.11221333
42	0xbc8bc8aa	-0.017063458
43	0xbdcd104a	-0.100128725
44	0xbdac2472	-0.08405389
45	0xbd50330a	-0.050829925
46	0x3e3c2ccf	0.18376468
47	0x3da599e6	0.080859944
48	0x3e331b34	0.17490846
49	0xbdda02da	-0.10645075
50	0x3e259f79	0.16174115
51	0xbd997aac	-0.07494101
52	0xbde04e22	-0.10952403
53	0x3c6950dd	0.014240471
54	0x3d809f35	0.06280366
55	0xbe03f8b6	-0.12887844
56	0xbd33b43a	-0.04387305
57	0xbe279807	-0.16366588
58	0xbc965c69	-0.018354611
59	0x3be44860	0.0069666356
60	0x3d7a4c4d	0.061107922
61	0xbdeb69b7	-0.11494773
62	0xbe1c3612	-0.15255001
63	0xbd883cf9	-0.066522546
64	0xbd32a14d	-0.04361086
65	0x3e0e44ec	0.13893479
66	0xbdfb4443	-0.12268879
67	0x3cad1428	0.021127775
68	0xbdf7d6b1	-0.12101496
69	0xbdc2c6b3	-0.09510555
70	0xbc82831d	-0.01593166
71	0xbd4ceca4	-0.050030366
72	0xbd243f6c	-0.040099546
73	0xbe1d2c6c	-0.15348977
74	0xbd9ce36d	-0.076605655
75	0x3d3257e1	0.04354084
76	0xbe0393cc	-0.12849349
77	0x3e3c1da3	0.1837068
78	0xbda3a7cd	-0.0799099
79	0x3cef9258	0.029244587
80	0x3d9d9106	0.07693677
81	0x3df34393	0.11878123
82	0xbdfb3595	-0.12266079
83	0xbdb0bfd5	-0.08630339
84	0x3e1dbd48	0.15404236
85	0xbdb265da	-0.08710833
86	0x3d122120	0.03567612
87	0x3cd16070	0.02555868
88	0x3de22078	0.11041349
89	0xbcb27c68	-0.021787837
90	0xbdd7a8bb	-0.1053023
91	0xbd5476f7	-0.051871266
92	0x3e406f8c	0.18792552
93	0xbdfdcef7	-0.12392991
94	0x3e4084c0	0.1880064
95	0xbe292b2c	-0.16520375
96	0x3e32f86a	0.17477575
97	0xbd89c59c	-0.06727144
98	0xbc40e210	-0.0117726475
99	0x3e100af6	0.14066681
100	0xbbb25381	-0.0054420833
101	0xbd23af55	-0.03996213
102	0xbda081fd	-0.07837293
103	0x3d88eff0	0.066863894
104	0x3da5548d	0.080727674
105	0xbc2eb35d	-0.010662881
106	0x3e0a8b46	0.13529691
107	0xbdefb85a	-0.11705084
108	0xbd6318d8	-0.055443615
109	0xbde413b4	-0.111365706
110	0x3e0c72ae	0.13715622
111	0x3e2552f2	0.16144922
112	0xbdd6ebf4	-0.10494223
113	0xbbb99a71	-0.005664163
114	0x3df76591	0.12079919
115	0x3e248a89	0.16068472
116	0x3d9ccee0	0.07656646
117	0xbe2573e4	-0.1615749
118	0xbd80459e	-0.062632784
119	0x3db4413f	0.08801507
120	0x3d5613f9	0.05226514
121	0x3d50c5e6	0.05096998
122	0xbe1a6799	-0.15078582
123	0xbdd9c998	-0.10634154
124	0xbe09cd08	-0.1345712
125	0xbbaf4f22	-0.0053500095
126	0xbd97e9f4	-0.0741767
127	0x3dc67cb3	0.09691753
128	0xbd1e5045	-0.03865077
129	0xbdd85c5f	-0.105644934
130	0xbe159bbd	-0.1461019
131	0x3cf20f0a	0.029548187
132	0x3d93b985	0.072131194
133	0xbdea690e	-0.11445819
134	0x3d65ba95	0.05608614
135	0xbda4c902	-0.08046152
136	0xbda6148a	-0.08109386
137	0xbdb3bc81	-0.08776189
138	0x3e15bcb9	0.14622773
139	0xbd91e7af	-0.07124268
140	0xbe140233	-0.14453964
141	0xbe0f6b85	-0.14005859
142	0x3dedcf03	0.1161175
143	0x3d05decc	0.03268318
144	0x3d94ca6f	0.07265174
145	0xbe02d114	-0.1277507
146	0x3c9f2b5f	0.01942986
147	0x3cfc81ef	0.030823676
148	0xbd061a8f	-0.032740172
149	0x3e2a258d	0.16615887
150	0xbda1ae7f	-0.078946106
151	0xbdd6762a	-0.10471757
152	0x3cef4bc0	0.029210925
153	0x3e44582e	0.19174263
154	0xbcb3b235	-0.021935562
155	0xbe2b2b14	-0.16715652
156	0x3ddbbbb0	0.10729158
157	0x3c8f8330	0.01751861
158	0xbe20b2eb	-0.15693252
159	0x3c4c3ee0	0.012466162
160	0x3e39e540	0.18153858
161	0xbd1f3bfe	-0.038875572
162	0x3da91e40	0.08257723
163	0x3d7755b7	0.06038448
164	0xbda57802	-0.0807953
165	0x3dc21e8f	0.09478485
166	0x3d9ae175	0.07562534
167	0x3e05b3fa	0.13056937
168	0xbdea2976	-0.11433689
169	0x3d3cac68	0.046062857
170	0xbdb82450	-0.08991301
171	0xbe1e2701	-0.15444566
172	0x3e06bf64	0.13158947
173	0xbdf2903a	-0.11843915
174	0x3dc7e5c8	0.09760624
175	0xbd8bad88	-0.06820208
176	0xbda1497a	-0.07875343
177	0xbd10cad5	-0.035349686
178	0xbd79c13e	-0.060975306
179	0xbc79b350	-0.015240505
180	0xbdd56c44	-0.10421041
181	0xbdb5fccf	-0.0888611
182	0xbe0e8567	-0.13918076
183	0x3dae59e8	0.08513242
184	0xbddf4ec9	-0.10903699
185	0x3e1a21f2	0.15052012
186	0x3dd22d6c	0.1026257
187	0x3d395a64	0.04525222
188	0xbdbf3b4d	-0.093374826
189	0x3afa8400	0.0019112825
190	0xbdf4e2b2	-0.11957301
191	0xbd52a1a0	-0.05142367
192	0x3dcf37bf	0.101180546
193	0x3dc8bcf9	0.09801669
194	0x3d8db4eb	0.06919273
195	0x3dea4984	0.11439803
196	0x3e0e4c1b	0.1389622
197	0x3d5dd819	0.054161165
198	0x3e16f221	0.14740802
199	0x3e46fdc1	0.19432737
